model.onnx (onnx, 284309 bytes, 8 tensors)

actor.latent_pi.0.weight f4 [256, 12]
000000 dd 03 ab 3e de 97 98 3f ea 9e 28 c0 87 57 d4 be
       0.33401385 1.1921346 -2.6346993 -0.41473028
000010 77 e1 4e 3e b7 74 8e bf 1b 8b 37 3d ff b2 27 bf
       0.20203196 -1.1129369 0.044810396 -0.655075
000020 a6 6a 04 be 01 f1 16 40 80 d7 5e be 70 e3 2a 3f
       -0.12931308 2.3584597 -0.21761894 0.6675329
000030 dd cf 40 3f 55 b5 13 bf 7d 5a 04 bf 0e a9 52 bc
       0.75317174 -0.57698566 -0.51700574 -0.012857689
000040 20 0d 19 bd 25 2f 81 3d c8 18 bb bf d1 b2 53 3e
       -0.037366033 0.0630782 -1.4616938 0.20673682
000050 de 52 2b 3e f6 24 08 c0 59 ba 76 3d 0b bb 24 bf
       0.1673083 -2.127256 0.06023631 -0.64347905
000060 42 88 82 bd 4a 54 2f be 4f 2a 90 be e4 a9 72 3e
       -0.06373645 -0.17121997 -0.2815728 0.2369762
000070 88 d2 63 3d 50 09 4e bd 31 d7 0c be 7a b7 3a be
       0.0556207 -0.05030185 -0.13753964 -0.18234053
000080 70 82 63 3e db b6 6d be 17 87 07 be 40 c7 45 bc
       0.22217727 -0.23214285 -0.13235126 -0.012071431
000090 b2 1e 50 be 82 93 46 be 40 b9 90 3b 66 39 80 3e
       -0.2032421 -0.19392207 0.004416615 0.25043792
0000a0 40 8f 10 bd 78 af d7 3d 25 df 92 be 80 1b 10 bc
       -0.035292864 0.10531515 -0.2868587 -0.008795619
0000b0 d0 f3 fb bc 36 f9 da bd 2a a4 63 be 5a 3d 81 be
       -0.030755907 -0.106920645 -0.22230592 -0.2524212
0000c0 98 b6 56 3f 68 cb 64 bf cb 7c 84 3e 7c fd 9f 3e
       0.83872366 -0.89372873 0.2587646 0.3124808
0000d0 25 3f 39 3d 9d dd aa 3d 05 8d ba bf 09 49 0d bf
       0.045226235 0.08343051 -1.4574286 -0.5518957
0000e0 d3 7d 39 bd d6 20 c4 bf 6c 5d 46 be 1a ee 4f be
       -0.04528601 -1.5322521 -0.19371575 -0.20305672
0000f0 54 76 23 bf 0d f6 1c 3e d3 88 d3 3f 01 6c 81 3e
       -0.6385243 0.15328236 1.652613 0.25277713
000100 00 95 ee 3e 5d 5f b6 3e c9 aa 5f be b3 25 12 3e
       0.46598053 0.3561963 -0.21842493 0.14272194
000110 bc 7e eb bc 82 78 c2 bf d4 af 6d be 41 6c 8b 3e
       -0.028746955 -1.5193026 -0.23211604 0.2723103
000120 d6 84 86 3f aa 95 1a 3f e7 05 87 3e 68 13 20 bf
       1.0509288 0.6038462 0.2637169 -0.6252961
000130 a8 cf a3 3e e4 fc d0 bf 0b 7a 1f 3f 3b ed c5 3f
       0.31994367 -1.6327176 0.622956 1.5463022
000140 49 77 ae be 58 e8 5c 3e 19 79 bf be ce d3 b0 3e
       -0.34075382 0.21573007 -0.37397078 0.34536594
000150 08 c9 78 be 2f 12 5f be d4 4a 57 be 52 6f 81 bd
       -0.24295437 -0.2178428 -0.21024638 -0.06320061
000160 60 44 ae 3c 60 c7 78 3d 0e fb 86 3e e8 2c 83 3e
       0.021272838 0.060737014 0.26363415 0.25620198
000170 a4 e1 60 be 8c e1 bb 3d 15 83 79 be 70 f8 76 bd
       -0.21961075 0.09173879 -0.2436641 -0.060295522
000180 91 07 a1 3f f6 49 85 be da d6 a2 3f 58 b0 bb bd
       1.2580434 -0.2603299 1.2721817 -0.09164494
000190 2b 4e 72 be 79 2f 1b 3e 13 4a a8 bf 0c 84 b2 bf
       -0.23662631 0.15154828 -1.3147606 -1.3946548
0001a0 7d 2f 32 be 32 77 2e c0 74 06 2e 3e 20 a5 35 3f
       -0.17400928 -2.726025 0.16994649 0.70955086
0001b0 f2 98 a4 3e 8e 75 ae 3e ea 1d 17 c0 35 56 02 be
       0.32147938 0.34074062 -2.3612008 -0.12728198
0001c0 d5 3b 48 3e 6b d0 3f bf 9e e6 46 3f 9e 26 a2 bf
       0.19554074 -0.74927396 0.77695644 -1.2668035
0001d0 a3 48 52 3e da f0 32 40 93 9e 26 be f9 dc eb 3d
       0.20535521 2.7959504 -0.16271429 0.115167566
0001e0 f4 6e 02 be c3 2c 8c be c0 2f e8 bb a5 90 8c be
       -0.12737638 -0.273779 -0.0070857704 -0.27454105
0001f0 b0 9f c5 3d 44 64 47 bd c0 9e 4d 3c 2c b9 cc 3d
       0.096495986 -0.048679605 0.012550056 0.09996256
000200 8a c1 36 3e 60 0d a0 3c e8 9d 1b 3e 0e 3b 45 3e
       0.17847267 0.019537628 0.15196955 0.19260809
000210 c7 2a 98 bf 96 33 6f 3f 2a 7d 4f be 11 b4 a9 be
       -1.1888055 0.9343809 -0.2026259 -0.33145192
000220 58 e5 24 3e 43 8c 15 bf 57 17 f6 3f 01 25 80 be
       0.16103113 -0.5841715 1.9225873 -0.25028232
000230 45 b9 5f bd a1 f7 f5 3e c5 9c 1f bf 63 61 49 3d
       -0.054620046 0.48040488 -0.62348586 0.04916514
000240 ef 9d 9c bf 78 0c 04 be 44 c8 07 3f 44 b5 c6 3d
       -1.2235698 -0.12895381 0.53039956 0.097025424
000250 d2 d8 dd be c1 10 98 3f fa ac 08 bf 8f d9 18 3f
       -0.43329483 1.1880113 -0.5338894 0.5970697
000260 c9 d3 4b bd 3d 7a c8 3d 30 d3 85 3f 26 ab 01 bf
       -0.04976252 0.0978894 1.0455074 -0.50651777
000270 63 52 cd 3f 94 a3 cc bf 8d ed 7a 3d 9d ed 23 bd
       1.6040767 -1.598742 0.061261702 -0.040021528
000280 6e 65 14 3e ff fe 90 3f b8 37 2a be 2d 66 17 bf
       0.14491817 1.1327819 -0.16622818 -0.5914028
000290 79 79 03 bf a2 95 05 c0 8f 3c 4c be d1 a4 eb 3e
       -0.5135723 -2.0872579 -0.19944976 0.46024182
0002a0 7d e5 77 bd 81 da 36 c0 a3 3f 15 40 ef d3 a5 3e
       -0.06052159 -2.8570864 2.332009 0.32388255
0002b0 fc ee f1 be d0 6f e0 3e 87 29 81 be ec 43 29 40
       -0.47252643 0.43835306 -0.25226995 2.6447706
0002c0 03 4e 5c 3e 0a c6 ce bf 3c 3f 46 3f 2b b5 7c 3f
       0.21514134 -1.6154187 0.7744024 0.9871394
0002d0 e2 e4 98 3d f4 b1 0f be d5 87 a7 3f 16 47 db be
       0.07465531 -0.14032727 1.3088328 -0.42827672
0002e0 14 7a 75 3e 53 1d 53 3f 5b 42 d5 3e 46 bd d4 be
       0.2397235 0.8246662 0.41652188 -0.41550654
0002f0 5d cf 57 3e 59 b4 34 bf 9f 64 70 3f 07 cf 56 3f
       0.21075197 -0.7058769 0.93903536 0.8390965
000300 e2 e2 88 3e b1 77 c1 bd 74 3f a0 3e da 5e d3 bd
       0.26735598 -0.094466574 0.3129841 -0.10320826
000310 84 2b 49 be 49 95 4e 3d 8d c0 1b be 87 fd 98 be
       -0.19645506 0.05043534 -0.15210171 -0.29880926
000320 df b2 3f bd 18 59 a2 3d f8 6a 65 3d a9 1d 8c bd
       -0.046801444 0.079271495 0.056010216 -0.06841595
000330 73 36 f3 be f8 6d e4 be 3b a6 55 bf 4a c5 98 3f
       -0.4750248 -0.4461515 -0.8345677 1.1935208
000340 ce cd 9e 3e 06 13 64 3f 42 95 48 3e 3c 8e 40 bf
       0.31016392 0.8909153 0.19588187 -0.7521703
000350 f2 b0 1b bf 23 51 cb bf e6 f7 76 bf b1 5e 95 be
       -0.6081687 -1.5884136 -0.96472013 -0.29173806
000360 96 7a 33 bf e9 b8 00 bf 26 51 d0 bf ff 83 93 be
       -0.70108926 -0.5028215 -1.6274765 -0.28811643
000370 9f 53 a6 3e 23 a1 d0 be b3 1f 79 3e e4 24 58 3f
       0.32485673 -0.40747938 0.24328499 0.8443129
000380 b7 51 23 bf d0 7a 99 bd ff 22 5f bf b1 84 ff be
       -0.6379656 -0.07494128 -0.87162775 -0.49905923
000390 88 0f 58 be 0a ed 3b bf a1 61 ad be ce 25 f7 bd
       -0.21099675 -0.7340857 -0.33863547 -0.120677575
0003a0 0f 28 2e be 3e a4 4c be 12 5c f3 3e 76 cd 9e 3e
       -0.17007469 -0.19984528 0.47531182 0.3101613
0003b0 ef 85 d5 be 71 e3 1a 3f 9a 27 ae 3e 6c 5c 51 3e
       -0.41703746 0.605033 0.3401459 0.20445412
0003c0 0a 82 8d be 88 bb 82 bd 5a 63 65 be c8 e7 12 bd
       -0.27638274 -0.06383425 -0.22401181 -0.035865575
0003d0 58 f6 2d bd c0 f4 d7 3d 40 2c c5 bd 5e 94 85 3e
       -0.04247126 0.10544729 -0.09627581 0.26089758
0003e0 c2 0b 4f 3e 78 41 46 3e 88 de 4b 3e 64 da 91 3e
       0.20219329 0.19360912 0.19909108 0.2848693
0003f0 54 56 c1 bf af fa 99 bd c4 7d 78 be 91 2e 72 bd
       -1.510447 -0.07518517 -0.24266726 -0.05912644

actor.latent_pi.0.bias f4 [256]
000000 01 c3 f9 bc 14 0c 06 be e0 b1 df bd 2a 2f 44 be
       -0.030488493 -0.13090545 -0.10922599 -0.19158617
000010 44 93 1d be 21 df 8e bd 61 7d 4f bd de 75 6f be
       -0.15388209 -0.06976152 -0.05065668 -0.23384807
000020 5b 05 e2 3d 9a 58 27 bd ec b1 4c be c7 84 f7 3b
       0.11036178 -0.04085598 -0.19989747 0.00755367
000030 fc 2d 04 be d7 5a 30 be 67 af 8c 3d 7b 19 3e bd
       -0.12908167 -0.17222153 0.06869393 -0.04641102
000040 f9 6a 98 be c3 42 b8 be 14 b2 77 be 88 45 b5 bd
       -0.29769114 -0.35988435 -0.24189025 -0.08851153
000050 ac a7 22 be 3c 26 d7 3c 78 a5 a4 3d a6 df de bd
       -0.15884274 0.026263349 0.08039373 -0.10882501
000060 cd 36 37 bd ce 51 5d be 00 02 39 bd 95 d2 9a bd
       -0.044729996 -0.21613237 -0.045167923 -0.075596966
000070 93 a1 e1 bc 6b b2 88 be 2a 49 ad bb 6f 58 84 3d
       -0.027542865 -0.26698622 -0.005288263 0.0646218
000080 64 12 85 be ba 5c 9e bd 1c a7 d8 bd 3c b4 10 bc
       -0.25990593 -0.0773253 -0.105787486 -0.008832034
000090 c4 1d 90 be dc 3b cf bc 75 f8 0e be 49 9a 00 bd
       -0.2814771 -0.025297098 -0.13961966 -0.031397138
0000a0 a5 a8 35 3b 0d 9d 89 bd 3a 6c 8b be 08 a1 37 be
       0.0027718928 -0.06719408 -0.27231008 -0.17932522
0000b0 5c 0d 97 bd fb 2e 48 be 4b 52 9f be 04 81 10 be
       -0.07375595 -0.19549172 -0.31117472 -0.14111716
0000c0 f7 cc 37 be b7 9d 73 be b5 bd 9c 3d 84 24 61 be
       -0.17949282 -0.23790632 0.07653371 -0.21986586
0000d0 34 bf 33 be 9e 83 5f be 82 d8 f9 ba a8 4a 6e be
       -0.17553407 -0.21827552 -0.0019061717 -0.23270667
0000e0 1a 8b a8 bc 5c 58 80 be 6f 77 8f bd ba 60 1a bd
       -0.020574141 -0.25067413 -0.07005202 -0.037689902
0000f0 68 99 80 be ff 7d 08 be c2 6e 45 be e7 6d 25 bd
       -0.2511704 -0.13329314 -0.19280532 -0.040388014
000100 c5 d5 00 bd 4e bf 90 3d a0 31 9a bd 8e 40 17 be
       -0.031453867 0.070677385 -0.075289965 -0.1477072
000110 1a 0e c7 bd 84 ec af bd c0 ae 5a be 38 52 9f bc
       -0.097194865 -0.08590034 -0.21355724 -0.019448385
000120 5d 9a 1c be 62 18 2f be 90 0a 0b be a3 39 9a be
       -0.1529326 -0.17099145 -0.13578248 -0.30122098
000130 cc 04 ab bd b2 b1 53 be 1b 0d 80 bd e4 f3 e1 bd
       -0.08350524 -0.20673254 -0.062525 -0.110328466
000140 48 3b 4f 3d f0 23 32 bd 75 97 a7 3d 58 89 eb bd
       0.050593644 -0.043491304 0.08183185 -0.115008056
000150 33 7d 99 bd f3 2c d7 bd 6d 29 3e bb d2 ab 28 be
       -0.07494583 -0.1050662 -0.002901639 -0.16471794
000160 26 62 8f bd bb 72 84 be c8 17 cf bc 41 f4 00 be
       -0.07001142 -0.25868782 -0.025279894 -0.12593175
000170 10 df 97 bd eb 23 8c be 9a 3c 07 be 50 63 91 be
       -0.07415593 -0.27371153 -0.13206711 -0.28396082
000180 1f 10 0d be 04 2a a1 3d c4 ec fa bd 48 8c 96 bd
       -0.13775681 0.07869342 -0.12252191 -0.07350975
000190 1c f4 e3 bd f9 00 87 be 58 7c 99 3d 81 b9 88 be
       -0.111305445 -0.2636793 0.0749442 -0.26704028
0001a0 6f dc cc bd a5 3c ba be 00 f3 62 bd 73 1a 43 bc
       -0.10002982 -0.36374393 -0.055407524 -0.011908161
0001b0 7c 93 0f bd ec 61 04 be ad 7e dc bd 35 34 8e be
       -0.03505276 -0.12927979 -0.10766349 -0.27774206
0001c0 51 79 6d bd bc 6b 5e bd f2 46 1d be f5 1f 0a be
       -0.057977024 -0.054301962 -0.15359095 -0.13488753
0001d0 bc 7a 51 be 76 0c ce bd 23 06 e0 bd da e6 ea bc
       -0.20456976 -0.100609705 -0.109386705 -0.028674532
0001e0 51 7d fd bd cc 06 f6 bd 1f b3 83 be b9 4f 13 be
       -0.12377418 -0.12013015 -0.25722596 -0.1438588
0001f0 e9 19 20 be c6 59 81 be d0 bd df bc ff f3 95 bc
       -0.15634884 -0.25263804 -0.02731219 -0.018304823
000200 ff d6 ce be 59 57 cc bc b5 1c 96 bd 26 c1 78 be
       -0.40398404 -0.024943994 -0.07329694 -0.2429243
000210 e5 c5 93 bd 3e 1e c0 3d bd f6 1e 3e aa 04 94 bd
       -0.0721548 0.09380768 0.1552381 -0.07227452
000220 67 16 68 be 92 6e b6 bd d8 da 1f bc 04 f5 89 3d
       -0.22664796 -0.08907808 -0.009756766 0.06736186
000230 39 de b0 bd fb e6 59 be 3c d5 2b be b1 f8 11 be
       -0.086361356 -0.21279518 -0.16780561 -0.14255024
000240 b4 6e 10 be ff 9d 24 bc ef 24 69 be a6 a8 a4 bc
       -0.1410473 -0.010047435 -0.22767995 -0.02009995
000250 c3 24 2e be dc 9d 6a bd 2a 3d 59 be 0a 3e 23 be
       -0.17006211 -0.057279453 -0.21214738 -0.15941635
000260 ec ea 77 be a6 15 00 bc 49 1f 88 be c9 45 a9 be
       -0.2421071 -0.007817661 -0.2658637 -0.33061054
000270 96 f8 93 bc f5 f1 e0 bd 4e 62 4e be 1f 52 35 bd
       -0.018062871 -0.1098365 -0.20154688 -0.04426777
000280 cb 6c 9d 3d 3b 96 52 bc e3 b2 32 be 5b dd 31 be
       0.07686766 -0.012853201 -0.17451052 -0.17369597
000290 f5 db 49 be 8f 23 78 be 6d 33 a9 3c bd 0c e7 bd
       -0.19712813 -0.24232315 0.020654405 -0.112817265
0002a0 96 09 a2 bd 3c 92 95 bc ce 50 94 be 38 6d 7a be
       -0.079119846 -0.018258207 -0.289679 -0.24455726
0002b0 a7 85 5d bd c8 c7 70 be 02 b0 51 be 9a ea c2 3d
       -0.05408254 -0.2351371 -0.20477298 0.09517403
0002c0 1c 94 73 be 24 24 83 bc a3 e7 f9 bd ed f9 6d be
       -0.23786968 -0.016008444 -0.12202384 -0.2323987
0002d0 6b fa f9 bd 47 a6 a0 be 04 4f 2c be d8 86 90 be
       -0.122059666 -0.3137686 -0.16827017 -0.28227878
0002e0 5a 88 05 3c ac a2 41 be d8 e9 b3 be 3f 60 cb bd
       0.0081501845 -0.1890971 -0.35139346 -0.09930467
0002f0 4f 40 92 be 01 e3 84 3d 13 01 dd bd 84 f8 a0 3b
       -0.2856469 0.0648861 -0.107912205 0.004912438
000300 39 36 4e bd 99 dd 2b 3c f0 5d 8b be fb cd 05 bd
       -0.05034468 0.010489845 -0.27220106 -0.03266714
000310 e5 52 18 bd 4a 8f 4f bd 4d 31 24 bc 7f c9 64 3d
       -0.03718843 -0.05067376 -0.01002152 0.055856224
000320 9f a8 ac 3c 36 d6 21 bd 3a 0f a8 be 35 5d f2 bd
       0.021076499 -0.039510928 -0.32824117 -0.11834184
000330 7c 1b 2b be 6d 41 5e be 6b bd b2 be e6 f6 5c be
       -0.16709703 -0.21704645 -0.3491014 -0.2157856
000340 ba b6 7f bc 14 18 90 bd d7 23 ea bd f6 fe 4a be
       -0.01560753 -0.070358425 -0.11432617 -0.19823822
000350 ae cf 84 bd f0 58 74 bd c8 19 9c be 54 d8 21 be
       -0.06484924 -0.05965513 -0.3048842 -0.15805179
000360 c1 a4 0e bd d6 cf 40 be 21 6f 1e be b5 0f c5 be
       -0.03482509 -0.18829283 -0.1547208 -0.38488546
000370 a4 b1 8d be 09 25 8c be 76 db 27 bd c2 30 4c be
       -0.27674592 -0.27372006 -0.04098078 -0.19940475
000380 c6 d8 92 be 1a 1e 19 3b c6 10 e7 bd 97 1b a2 be
       -0.2868101 0.002336389 -0.11282496 -0.31661674
000390 c6 36 e3 bc 38 09 1b bd 3a 5f 71 be 89 bd 72 bd
       -0.027736079 -0.03785059 -0.23571482 -0.059262786
0003a0 1e 26 0b be c7 bb 7c bd 1b 0c 16 be 9f 83 63 bd
       -0.1358876 -0.061702516 -0.14653055 -0.055545446
0003b0 89 39 80 be 90 6d 81 be 6c 1c 12 be b2 41 57 be
       -0.25043896 -0.25278902 -0.14268655 -0.21021155
0003c0 ba 03 13 be 6b 71 55 bd 72 8e 29 be 18 87 68 be
       -0.1435689 -0.052110117 -0.16558245 -0.22707784
0003d0 31 cb 72 be 81 74 26 3d 69 df b4 bd c1 dd 61 be
       -0.23710324 0.04063845 -0.088316746 -0.22057249
0003e0 0b 97 9d bd 25 38 8d be 1c ee 29 bd fc 04 68 be
       -0.07694825 -0.27581897 -0.041486844 -0.22658151
0003f0 0f 42 8a bd 20 bb 00 be a2 f7 97 bd 2c b9 11 bd
       -0.06750881 -0.12571383 -0.07420279 -0.035576984

actor.latent_pi.2.weight f4 [256, 256]
000000 ca 45 45 bb e8 82 57 bc 5c 60 bd 3c c4 60 79 3d
       -0.0030101412 -0.013153769 0.023117237 0.0608833
000010 91 72 12 bd 0e ea 12 bd 8d 5b 2f bd 06 70 21 3d
       -0.03575379 -0.035867743 -0.04281192 0.039413475
000020 ae a0 54 bd 70 d0 93 3b ba 6f 49 bd 23 c2 35 3d
       -0.05191105 0.0045109317 -0.049178816 0.044374596
000030 2c 45 a0 bd 82 92 e4 3b 2c 54 7d bd cd a4 32 bd
       -0.078256935 0.006975473 -0.06184785 -0.043614198
000040 22 cc 27 3d dd a0 74 bc bc dd 23 bd 0a 56 43 bd
       0.04096616 -0.014930931 -0.040006384 -0.047689475
000050 b8 b9 5e 3c f2 15 2c bd cd d7 e7 bd b8 69 01 bd
       0.0135940835 -0.042013116 -0.113204576 -0.031594962
000060 08 a1 65 3d 88 6b 8d 3c cf 91 68 bc 7e d4 56 bd
       0.056061774 0.017263189 -0.01419492 -0.052448742
000070 5c 03 a7 3c 70 b7 eb 3b 4e 17 81 bd d3 8a 5d bd
       0.020387344 0.0071934983 -0.06303273 -0.05408747
000080 49 ce 48 bd a8 d4 82 bc 74 7d da 3c 95 d4 0d 3d
       -0.049024854 -0.015970543 0.026671149 0.034626562
000090 bc 8a 32 3d de 0f d8 bc d3 78 1f bc a5 3e 12 3d
       0.04358934 -0.026374754 -0.009733397 0.035704274
0000a0 c3 81 4f bc 78 78 15 bb cc 2a ce bc 57 4c af bc
       -0.012665215 -0.00228074 -0.025166892 -0.021398706
0000b0 fe 9a 49 bd 20 3c ce bc b6 4f 51 bd 6b 67 9e 3b
       -0.049220078 -0.025175154 -0.05110141 0.0048341057
0000c0 7a ff 6e 3d b4 10 42 3d 99 f1 7e bd b0 85 12 3d
       0.05834911 0.04737921 -0.062242124 0.035772026
0000d0 30 f3 47 3c 96 01 46 bc a9 cf 0e 3c 00 9b 5e 3b
       0.0122039765 -0.012085339 0.008716502 0.00339669
0000e0 c3 53 db 3c 3a dd 77 3d f8 58 b1 bc 95 33 0f bd
       0.02677334 0.060513712 -0.021648869 -0.0349613
0000f0 eb 0d 7a bc de d8 54 3c 5c 86 70 3d 4c a0 4f bd
       -0.015262107 0.012991158 0.058721885 -0.05068998
000100 2a 02 7f bd a3 60 26 3d 62 5d 0c bc 08 83 0b bc
       -0.062257923 0.040619504 -0.008567186 -0.008515127
000110 56 83 19 3d 5d de 57 bc c8 df 0e 3d cf 60 93 3c
       0.037478767 -0.013175574 0.034881383 0.017990498
000120 a7 34 70 bd 87 9a 61 3d 1c fd c3 3c 24 7e 1f 3d
       -0.058643963 0.05507901 0.023924403 0.038938656
000130 7b 83 9e 3c 13 3d d2 3c 41 e3 85 bc ca 74 38 3d
       0.019349804 0.025663888 -0.016343715 0.045033254
000140 07 00 ba bc 3c 60 07 3d 1b 86 15 bd 66 13 2a 3d
       -0.022705091 0.03305076 -0.036504846 0.041522406
000150 39 55 dd 3c 3a d3 37 3d e2 22 3f bd 94 1c e9 bc
       0.027018176 0.044879176 -0.046664126 -0.02845601
000160 ec cc 62 bd 10 1b ee bc b9 b1 08 3c d3 8e 3f bd
       -0.05537121 -0.029065639 0.008343154 -0.046767067
000170 83 82 40 3c 8c 13 3a 3d e4 2e da 3c 78 e6 36 3c
       0.011749866 0.045428798 0.026633687 0.0111633465
000180 7c e4 04 bd 98 83 2d 3d 4c 9e 81 bd 21 7b e7 3a
       -0.032444462 0.042361826 -0.06329021 0.0017660597
000190 d2 51 3c 3d 97 45 32 3d 1e 75 13 3d 6c e4 88 3c
       0.045976467 0.043523397 0.036000364 0.016710483
0001a0 20 24 10 bc b3 9b fe bb 50 75 a4 3b 04 2b ce 3c
       -0.008797675 -0.0077700256 0.0050188676 0.025166996
0001b0 d9 92 40 3d a5 38 95 bc 03 c7 fe 3c 78 8c e6 3c
       0.047015045 -0.018215487 0.031100756 0.028143153
0001c0 e6 26 76 bd 38 bd 7d bd ac cb 49 3d 93 9d fd 3c
       -0.06009569 -0.06194803 0.049266502 0.030958926
0001d0 06 59 1b bd 2a ae 25 bd c4 80 b1 bd ae 6b 9c bc
       -0.037926696 -0.0404493 -0.08667138 -0.019094314
0001e0 be 89 4a bc 14 f2 51 bd 51 55 05 bd f6 2d ae bc
       -0.012361942 -0.051256254 -0.032552067 -0.02126215
0001f0 3f 78 ce 3b fc b9 a0 3c 44 83 c1 3c aa 5d fc 3c
       0.0063009555 0.019619934 0.023622163 0.030806381
000200 30 4c 69 3c 8e 7f 4b bd f4 93 30 3d 05 bb 4e 3d
       0.014239356 -0.049682193 0.04310985 0.050471324
000210 bf df 5c bd 22 05 e1 3c 9b 26 f5 3a e5 a2 7a 3d
       -0.05392432 0.027468268 0.0018703522 0.061190505
000220 44 c7 ad bc 7f 00 37 bd 8e 4b 9e bc d7 80 d2 3c
       -0.021213181 -0.044678207 -0.019323137 0.025696201
000230 05 8d 7f bc 4e 12 6e bc 3c fa 15 3d 39 8b 74 bd
       -0.0155975865 -0.014530731 0.036615595 -0.059703086
000240 a8 d7 81 bd 17 c4 9f bc 2c 5e f8 bc a6 c9 d3 bc
       -0.06339961 -0.019502683 -0.030318342 -0.02585299
000250 9e a4 91 bc c0 a0 b4 bb 60 5d fd 3b 9c ee 8e bd
       -0.01777869 -0.005512327 0.0077320784 -0.06979105
000260 c9 fc 8b bd d7 84 4c bd ec 99 18 3d aa 97 11 bd
       -0.06835324 -0.049931373 0.037256166 -0.03554503
000270 3e 9e 40 3c 11 44 19 bd 2c a2 01 bd 0c 61 4b bd
       0.011756478 -0.03741843 -0.0316488 -0.049653098
000280 b6 67 83 bd 04 d0 bd bc b0 94 48 3d a9 22 bd bd
       -0.06416266 -0.023170479 0.048969924 -0.092351265
000290 fc 7e f7 3c 6e f7 42 bd ce 54 61 bc ab 20 cc 3b
       0.030211918 -0.04759925 -0.013753129 0.0062294803
0002a0 58 aa 20 bd 60 90 b5 3c 6f 7b 49 3c 10 72 6c bd
       -0.039224952 0.02216357 0.012297495 -0.057725966
0002b0 5a 96 67 3d f8 e1 ba 3c c0 9b 05 3d 6d 39 51 3d
       0.05653987 0.022812828 0.032619238 0.051080156
0002c0 ec f9 30 3d 62 70 4f bd c7 c4 d5 3c 12 cf c3 3c
       0.043207094 -0.050644286 0.026094807 0.02390245
0002d0 4e ac ab bc bd c8 25 bc 68 95 0a 3c 5a 06 7f bc
       -0.020956185 -0.0101186605 0.008458473 -0.015565479
0002e0 42 10 88 3b 50 bb 4e bd f1 35 4d bd 6b a8 69 bd
       0.0041523287 -0.050471604 -0.05010027 -0.05704538
0002f0 b2 c0 eb bc 2c cc 04 bd 05 eb 3b bd 06 11 46 bb
       -0.028778408 -0.032421276 -0.04587843 -0.003022255
000300 50 0e 27 bd 9a 14 ca 3c d8 37 a1 bc ef 94 c3 3b
       -0.040785134 0.024668027 -0.019679949 0.005968682
000310 59 a6 46 3c fc e7 63 bc 5e 5e 35 bd 17 c9 92 bd
       0.012124621 -0.01391029 -0.04427945 -0.07167261
000320 c9 2d 2f bd b0 e2 db bb 66 e8 92 bd 95 64 1e 3c
       -0.042768274 -0.006710373 -0.07173233 0.009667535
000330 43 cc 56 bd 0a 08 71 bd 71 ea 6f bc f0 68 ed 3c
       -0.052440893 -0.058845557 -0.0146432975 0.028980702
000340 0f db 2e 3d ec ec 00 bc 07 57 59 bd 16 5e 0b bd
       0.04268938 -0.007868987 -0.05306151 -0.034025274
000350 6a cf 96 3c 16 82 05 3d 1b fe 6b 3d f1 bd 5e bd
       0.01840945 0.032594763 0.05761538 -0.05438036
000360 5c f0 3d 3d 98 8f 45 3c 1b 33 4a bc 09 79 26 bc
       0.046371803 0.012058161 -0.012341286 -0.010160693
000370 d8 c0 40 3c c6 8e 2a bd 44 30 6d bd ea f3 75 3c
       0.0117647275 -0.041640066 -0.057907358 0.015011767
000380 68 60 24 3c 31 7d f5 bc 23 8c 87 3a 32 4c 05 bd
       0.010032751 -0.029966922 0.0010341447 -0.03254337
000390 3a dd 5c bd ea 1b 75 bd 28 1e 34 bd f1 fc 80 bc
       -0.053921916 -0.059841074 -0.04397407 -0.015745612
0003a0 8a c0 aa bc c5 bb 0a 3d 40 48 ff ba 1d 3f 82 bd
       -0.020843763 0.033870477 -0.0019476488 -0.06359694
0003b0 a4 53 8b bc 88 8f 2e bd 8a 75 1f bd b4 4f 56 bd
       -0.017007656 -0.04261735 -0.038930453 -0.052322105
0003c0 78 8d 3a bd e7 9e c5 bc d8 05 62 bd bc ee cc bc
       -0.04554507 -0.024123622 -0.055181354 -0.025016181
0003d0 e4 33 45 bd f6 a0 4d 3d ac 82 a2 3c 70 a8 12 3d
       -0.04814519 0.050202332 0.0198377 0.035805166
0003e0 5c da 29 3d 14 5a 3b 3d 66 eb 8c 3c e0 3b 2d 3b
       0.04146801 0.045740202 0.01720209 0.0026433393
0003f0 cf e8 44 bd 40 76 33 bc 2f 2e 4b bd dc 52 bb bc
       -0.048073586 -0.010953486 -0.04960459 -0.022866659

actor.latent_pi.2.bias f4 [256]
000000 c9 36 60 3b 0a b5 5c bd e1 1e e9 bc 8d 4f bc bd
       0.0034212342 -0.05388359 -0.028457107 -0.091948606
000010 fb a4 d1 bc 28 4b f0 bd e3 20 c1 bc 30 44 57 bb
       -0.025591364 -0.11733085 -0.023575252 -0.003284704
000020 d3 d4 1f bc f7 91 d9 bc 6c ab e5 bd 59 fc 6f bd
       -0.009755331 -0.02655886 -0.11214337 -0.058590267
000030 15 bb 0f bd 40 c2 9c bd f3 de 5b bd b5 c9 42 bd
       -0.035090525 -0.07654238 -0.053679418 -0.047555644
000040 d2 32 14 3e 1a c2 6b bd 0b 72 19 bd 41 e6 c0 3d
       0.14472511 -0.057558157 -0.037462275 0.094189174
000050 5e 3a 76 be f0 72 62 3c ea ba 52 bb 97 6b b0 bc
       -0.24045703 0.013821349 -0.0032154866 -0.021535678
000060 e1 28 b2 bc 33 9e 8b bd 21 40 17 bd 9c a3 ac bb
       -0.021748008 -0.068172835 -0.036926392 -0.005268527
000070 45 43 45 3b 12 20 2a 3e d7 d7 35 bb 31 4f 0a 3e
       0.003009991 0.16613796 -0.0027747059 0.13506772
000080 ac c8 86 bd 44 6b 08 3d 1b 9f 5f bd dd e6 d4 3d
       -0.06581244 0.03330542 -0.054595094 0.10395596
000090 f2 af ee bd 94 1f 90 bb f7 a3 04 bf be e6 98 bc
       -0.11654653 -0.0043982957 -0.5181269 -0.018664714
0000a0 bb 07 41 bd 56 69 88 bd 2a 09 90 bd fe a4 4f bc
       -0.047126513 -0.06660716 -0.07032998 -0.012673615
0000b0 e0 e2 a7 3c 5b 27 98 be 64 c4 8c bd 89 8d dc bc
       0.020493925 -0.29717526 -0.06873396 -0.026922958
0000c0 1c a6 34 bc c8 ef 86 bd 26 0f 17 bd 05 80 2d 3e
       -0.011025932 -0.065887034 -0.03687968 0.16943367
0000d0 75 e0 a3 bd c8 af 70 bd 86 7e 84 bd fb 47 4b bb
       -0.08001796 -0.058761388 -0.06469445 -0.0031018245
0000e0 db 3b d8 bc 45 49 49 bd fa 3d d3 bc bc 40 4c bd
       -0.026395729 -0.04914214 -0.025786389 -0.049866423
0000f0 32 fe 57 3b 5b 06 1e 3b ac 23 5b bd a0 6d 38 3e
       0.0032957909 0.0024112675 -0.053500816 0.18010569
000100 04 02 2a bb 9e 91 28 bb a9 e5 1d 3b d2 52 44 bd
       -0.0025941143 -0.002572156 0.0024093187 -0.047930546
000110 ee 91 a1 bc cc c9 2d bd cb 4f 96 bd 13 28 7e bd
       -0.019722905 -0.042428777 -0.07339438 -0.062049937
000120 02 9c af bd 53 26 76 3e f9 99 21 3d a5 cf a6 be
       -0.08574678 0.24038057 0.03945348 -0.32580295
000130 fb 74 99 bc 49 7e 1c be 41 37 49 3a f5 c0 a6 3c
       -0.018732538 -0.15282549 0.0007675775 0.020355681
000140 be e7 70 bd e1 e7 12 bc a6 7f 55 bc 23 44 1d bd
       -0.058814757 -0.008966417 -0.013030922 -0.03839506
000150 05 6e 98 bc 81 3c d2 bc c5 ed 55 bd 0c fb a5 bd
       -0.018607149 -0.025663616 -0.052228708 -0.08104524
000160 06 e1 8a bc f0 e1 b6 bd c8 59 63 bd 1e 3e d9 bc
       -0.016953003 -0.08929813 -0.055505544 -0.026518878
000170 55 c2 b9 bd 59 59 b1 bd 3c 5e 49 bd e9 88 3b 3d
       -0.09070269 -0.0865962 -0.049162135 0.045784865
000180 b9 e1 4d 3c 8c c6 2d 3e 24 e0 56 bd 4d a4 12 bc
       0.0125660235 0.16970271 -0.05245985 -0.008950305
000190 47 96 0a 3c b0 11 de bb 1e c8 e2 be 44 7f 97 3d
       0.0084586805 -0.006777011 -0.44293302 0.07397321
0001a0 b3 45 8e bd 64 af 1d bd 39 95 19 be dc ef 54 bd
       -0.06946888 -0.038497344 -0.1499833 -0.05198656
0001b0 a2 bf b6 bd 4c 1f e9 3c 66 f0 fa 3d 25 00 26 bd
       -0.0892327 0.028457306 0.122528836 -0.04052748
0001c0 ca 75 4c 3c 44 fe 69 3d 01 58 5a bd d2 8a af bc
       0.012479255 0.057127252 -0.053306583 -0.0214285
0001d0 75 e9 90 bd ff ca fc 3a 22 b6 27 bd 38 7e d1 bc
       -0.070757784 0.0019286572 -0.04094518 -0.025572881
0001e0 39 16 0c 3e 7e ec f6 bc 3a 80 d4 bd 4c ed 2b 3e
       0.13680352 -0.030142065 -0.1037602 0.1678974
0001f0 d4 b9 9c bd 0e 50 39 be 84 d0 f0 bc f9 a6 ac 3a
       -0.076526314 -0.18096945 -0.029396303 0.001317232
000200 e2 94 b9 bd 05 bf 9f bd 0d 5e 44 3a f5 f0 cd ba
       -0.090616 -0.07800106 0.00074908213 -0.001571207
000210 8a 0d 37 3c 10 7f 7d bd af 48 80 3c 8a 18 f5 3d
       0.011172662 -0.061888754 0.015659658 0.11967571
000220 1e 3a b9 bb aa 00 5a bb ab b4 a7 bc 02 84 2b be
       -0.00565268 -0.0033264556 -0.020471891 -0.16749576
000230 0b 53 72 bc 03 50 98 bd f8 c5 55 bd 45 da c7 bc
       -0.014790307 -0.07437136 -0.05219075 -0.024396071
000240 c8 94 ad 3c 70 d2 24 bd 4b fc 57 bd 5e b9 9c bc
       0.021189108 -0.04023975 -0.05273084 -0.019131359
000250 b6 ef c7 bc 2a 96 4b 3c 56 6e 5f 3e 71 20 ab 3b
       -0.024406295 0.012425939 0.21819434 0.005222373
000260 bd 53 0c bd 9a 80 9c 3d ad 12 6c bd 16 91 24 be
       -0.034259547 0.07641716 -0.057634998 -0.16070971
000270 64 df dd bd bf 4c 53 bd 73 79 cc bc 4e 1e 79 bb
       -0.10833624 -0.051586863 -0.024960255 -0.0038012448
000280 5b da c5 3e b3 6c 7c bd ce db 15 bc 6b 8e d0 bb
       0.38643155 -0.0616271 -0.009146644 -0.006364634
000290 93 b0 9f bc c6 51 3b bd 3c 9d 7d bd f6 23 44 bd
       -0.019493377 -0.045732282 -0.06191753 -0.047885858
0002a0 02 e1 af bd 34 27 1a 3e 61 ab c5 3a 92 18 3b bc
       -0.08587839 0.15054017 0.0015080982 -0.011419432
0002b0 5b 22 bd 3a 51 1b 8c bd 51 b1 9d bb 15 55 11 bb
       0.0014429794 -0.06841148 -0.0048123975 -0.0022175957
0002c0 af 9c b1 3d 93 94 dd bc 4d c5 3c 3d a5 26 8e bd
       0.08672463 -0.027048385 0.0460866 -0.069409646
0002d0 6a 49 29 bd 84 90 83 bd 77 16 a4 3d 9f 2e 98 bd
       -0.04132978 -0.064240485 0.08012097 -0.07430767
0002e0 da 8c 0f bd 45 c2 d0 bc 7a 05 bc bd 52 89 78 bd
       -0.035046436 -0.02548326 -0.09180732 -0.060677834
0002f0 2e 72 09 be 76 29 59 3d 61 2f 8f bd 57 a1 ef bc
       -0.13422462 0.053018056 -0.06991459 -0.029251738
000300 8d 50 73 bc f4 78 e7 bc 51 27 8c bd 54 9a 9d bc
       -0.014850748 -0.028255917 -0.068434365 -0.019238628
000310 3a bd 62 bc aa 67 b8 be a7 39 88 bd e3 0b 8e 3e
       -0.01383906 -0.3601659 -0.06651621 0.27743444
000320 dc e3 82 bd ab 72 38 3e a7 7f db bd 4d 48 50 3e
       -0.06391117 0.18012492 -0.10717707 0.2034008
000330 03 2f 24 3b f6 e4 4b 3b 39 8a 18 3e 0f 5c b8 be
       0.0025052435 0.0031111813 0.14896478 -0.36007735
000340 9e 77 c9 3d 90 c1 ba 3d bc fa b4 bd 74 dd 08 be
       0.09837268 0.0911895 -0.08836886 -0.13365728
000350 7a 1a 68 3c b0 5c 0e bd 8f f3 0a bc de b6 c1 3d
       0.014166469 -0.034756362 -0.00848092 0.09458707
000360 0c 72 72 bd 15 50 7f bd ab 06 50 bd a4 c8 01 3c
       -0.059190795 -0.06233223 -0.05078761 0.007921372
000370 9b 32 80 be 46 61 01 be c5 76 5d bd 8d d9 41 be
       -0.2503861 -0.12634763 -0.054068346 -0.18930645
000380 85 69 9d bc d7 04 a2 bd cf 41 1e bd ab 1a c7 bc
       -0.019215355 -0.079110794 -0.03863698 -0.024304708
000390 d8 5a 7c 3d b5 fb 55 bd c3 9f 87 bc e4 b2 65 bd
       0.061610073 -0.052242 -0.016555673 -0.056078807
0003a0 77 f4 8d bc f0 53 94 bd f4 1c 36 bd ad f9 2a bd
       -0.017328484 -0.07242572 -0.044461206 -0.041742016
0003b0 ae 31 13 bd 5c a8 61 bd 75 88 7b bc b2 a8 3c bd
       -0.03593605 -0.0550922 -0.015352358 -0.046059318
0003c0 76 19 4f bd 8d f2 c6 bc 22 6d 37 bc e4 5c 97 bd
       -0.05056139 -0.02428558 -0.011195453 -0.07390764
0003d0 08 63 3b bd 24 9e a6 bd c8 0e 8f 3b f1 05 75 bd
       -0.04574874 -0.08135632 0.0043657757 -0.05982012
0003e0 b9 ac 92 bd 84 97 59 3a 15 36 67 bd 8c 4c ce bb
       -0.071618505 0.00083004707 -0.05644806 -0.006295746
0003f0 be 7c 5c 3e 7a b0 34 be 28 9e 0c bd fb 79 e7 bc
       0.2153196 -0.17645445 -0.034330517 -0.028256407

actor.mu.weight f4 [2, 256]
000000 a0 b8 36 3d 4a 29 3d bd 17 df 86 3c 26 5e 30 bd
       0.044609666 -0.046181954 0.0164638 -0.043058537
000010 ac c7 f4 3f eb 52 15 bd e9 ba 39 3c 18 77 90 bc
       1.9123435 -0.03645603 0.011336067 -0.017634913
000020 fc 68 e7 bc d6 5e 66 bb 75 a7 ea 3c 3e 42 48 3d
       -0.028248303 -0.0035151741 0.028644303 0.0488913
000030 cc 4c cb bc 73 a9 27 bf 59 8f a3 3c 6a 1a a5 bf
       -0.024816893 -0.65492934 0.019965814 -1.2898686
000040 56 d1 b0 3d 17 36 84 bb e0 a8 f0 bc 26 75 d7 bc
       0.08633678 -0.0040347683 -0.0293774 -0.026300978
000050 75 31 54 bf 1a e9 d7 3c 92 38 85 3c fe 0e 9b 3b
       -0.82887965 0.026356269 0.016262326 0.004732012
000060 d2 02 22 bd 07 7d a5 bb 3e 68 9d 3c 73 88 b8 bc
       -0.03955347 -0.005050305 0.019214746 -0.022526002
000070 c1 c5 44 bf 60 ae 69 3e d2 ac b9 3c 91 08 cc bf
       -0.7686425 0.22820425 0.022665415 -1.5940114
000080 29 b2 46 bc 90 74 8b bd c6 06 54 39 e2 d1 c3 3e
       -0.012127438 -0.06809342 0.00020220419 0.38246065
000090 45 08 30 3d e9 60 1f 3d a6 0f 84 bf d5 3d a0 3b
       0.042976636 0.03891078 -1.0317276 0.0048901835
0000a0 4d 80 12 3d 4e 4b c7 bc ec da de 3b 89 16 ad 3a
       0.03576689 -0.0243279 0.006801 0.0013205569
0000b0 a7 9b 13 3d 07 8d 07 bf 86 d3 3a 3b fe fb 58 3c
       0.036037114 -0.52949566 0.0028507425 0.013243673
0000c0 ba 46 b3 bc f3 cb ac 3c 56 93 8f bc d5 c3 22 40
       -0.021884311 0.021093344 -0.01752631 2.5432026
0000d0 59 c6 6d 3c eb d6 15 bc 33 74 2c bc f4 4e 08 bd
       0.014512622 -0.009145479 -0.010525751 -0.03327842
0000e0 f6 6e bc 3c 1a c7 b2 3a 34 26 f2 bc 90 ec 18 bc
       0.023002129 0.0013639659 -0.029559232 -0.009333745
0000f0 35 58 a0 bc c8 82 5b 3d 82 27 9d 3c 01 03 15 3e
       -0.01957331 0.05359152 0.019183878 0.14551927
000100 10 51 12 bd 0d 1c f4 3b 55 43 a6 bd e3 db 9b ba
       -0.03572184 0.007449633 -0.08118311 -0.0011891093
000110 86 44 ab 3c f0 7c e3 bc 1f 04 39 3d 78 95 ad bc
       0.020906698 -0.027769536 0.045169946 -0.021189436
000120 cf 91 0d bd a2 7e 10 3c 7a 2b a9 bd 12 ea 98 be
       -0.034562882 0.008819254 -0.082602456 -0.2986608
000130 83 55 ca 3c f6 4b c2 3d 6b 74 0b 3d 08 ff 63 bd
       0.024698978 0.09487145 0.03404657 -0.05566314
000140 5e e4 14 bd 66 b7 ac bc 8d 04 cb bc 1b 49 35 3d
       -0.0363506 -0.021083545 -0.024782443 0.044259172
000150 1e ac 90 3c 0c 55 37 3d 52 ba b2 3c bb fb f8 3a
       0.017660197 0.04475884 0.02181736 0.001899592
000160 e5 bc 1d bd 07 35 22 bc b4 18 a1 bc 74 5b 86 3c
       -0.038510222 -0.009900338 -0.0196651 0.01640103
000170 0e 31 dc 3c c5 9e 95 bc d8 e9 98 bc 02 6e d5 3e
       0.02687886 -0.018264184 -0.018666193 0.41685492
000180 71 85 74 3d 24 32 8a be 1d 0b 01 bd 13 7b a0 3b
       0.059697572 -0.2699138 -0.03150474 0.004897484
000190 67 78 3d bd 58 d0 3a 3c 13 0e 02 bf ed 4c d7 bd
       -0.046257403 0.011402212 -0.50802726 -0.10512719
0001a0 c0 f7 f2 3c 73 3c ec bb 5a e7 f0 be 45 ad 2f bc
       0.029659152 -0.0072093545 -0.47051507 -0.010722463
0001b0 10 0c 37 3c d7 d9 4f 3e a1 be 46 3e d6 73 dc 3c
       0.0111723095 0.20297943 0.19408657 0.026910704
0001c0 ea f4 98 3c f1 83 91 3e 96 0a 81 bd 9b d6 df 3c
       0.018671472 0.28420976 -0.06300847 0.027324012
0001d0 07 b3 33 3d 7e 08 8f bc 3e 74 45 bd 2a 0d 22 3d
       0.043871906 -0.017460104 -0.04820656 0.039563335
0001e0 2c 4a 2e 3e 32 9d b9 bc 25 9d eb bb 2a 4a b0 be
       0.17020482 -0.022657964 -0.007190364 -0.34431583
0001f0 2b 43 c3 bc f7 d9 99 3d 26 96 46 3d 6e 63 2a bb
       -0.02383574 0.075122766 0.048483036 -0.0025999206
000200 f9 d3 25 3d 6e b5 78 3c fa 44 bd bc ed 1e a3 3d
       0.040485356 0.015179975 -0.02310418 0.07964883
000210 02 55 09 3d fa cf 89 bb 9d e5 3f 3d b4 6a b3 bf
       0.033528335 -0.004205701 0.046849836 -1.4016938
000220 35 76 26 bc 6b 9e 1e bc 08 eb 4b bd 86 11 c3 3c
       -0.010160019 -0.0096813245 -0.04978469 0.023812067
000230 58 2e b4 bb 5f be 3c ba ae 39 95 bb f2 38 5b 3c
       -0.0054986887 -0.00071999984 -0.004553995 0.013380276
000240 7d 72 67 3d 6a f4 f4 3c b1 e5 e0 bc 26 f8 12 bc
       0.05650567 0.029901702 -0.027453275 -0.008970296
000250 38 8d 1b 3d d8 83 9a 3c 0e 0c a0 bf 37 a4 74 3d
       0.037976474 0.018861696 -1.2503679 0.05972692
000260 08 02 14 3d 0f b7 88 bf 93 09 0f bd 82 4c ba bc
       0.03613475 -1.0680865 -0.03492124 -0.02274156
000270 0f 17 13 be c0 81 8a 3d 33 4f 80 3c 24 d8 52 bc
       -0.14364265 0.06763029 0.015662765 -0.012868915
000280 44 62 05 c0 36 c0 61 3d 5e 0e b4 bc 5c 4e 20 3b
       -2.0841227 0.055114947 -0.021979507 0.0024460768
000290 08 7e 3d 3d e7 83 13 bc 56 45 42 bd a0 46 18 bd
       0.04626277 -0.009003616 -0.047429405 -0.03717673
0002a0 e2 fe f0 3c 6e 1e 78 3d 15 37 ff 3c 31 cd 0d ba
       0.029418413 0.060575895 0.031154195 -0.0005409299
0002b0 7a 4c b3 3c 1f 23 43 3c 6e fe 8e 3c f7 df 6a 3d
       0.021887053 0.011910229 0.017455306 0.057342496
0002c0 f1 26 c1 3f 17 df 99 3c ca 61 38 3d 01 48 04 bd
       1.5090009 0.018783135 0.045015134 -0.03229523
0002d0 39 5f 97 3c 97 e8 2b bd 2a 3c 0f 3c 27 66 41 bd
       0.018478023 -0.04196986 0.008742372 -0.04721656
0002e0 eb 3b 33 3d 7c d7 25 bc b6 3c 8b bc 94 88 0c 3c
       0.043758314 -0.010122176 -0.016996723 0.008577485
0002f0 4c b8 53 3f 97 9e 75 bb fa 62 88 3a f9 69 2e bb
       0.8270309 -0.003747856 0.0010405474 -0.0026613458
000300 6d 54 d5 bc b7 90 3c 3c bd 00 7e 3c cb f9 c1 bc
       -0.026041234 0.011509112 0.015503106 -0.02367868
000310 bd 0b 39 bd e7 f0 a1 3f e1 b2 d1 bc cc 79 05 c0
       -0.04517721 1.2651643 -0.025597991 -2.085559
000320 8e 93 19 3b ca d0 8a 3e 9a 36 1f bd d1 dd 8e bc
       0.0023433897 0.27112418 -0.03887043 -0.017439755
000330 55 47 e6 bc b8 59 b6 bb 13 e3 b6 bc 45 70 96 3e
       -0.028110186 -0.0055648945 -0.022325074 0.2938253
000340 dc 56 2d 40 62 b1 87 be 8b cf 8d bd 00 71 48 be
       2.7084265 -0.2650252 -0.06924351 -0.19574356
000350 9c ba 16 bd 75 e8 f0 3c 8e 21 81 3c 2d 2c 03 3f
       -0.03679906 0.02940772 0.01576307 0.5123928
000360 cc 48 f7 bc 22 c9 84 3d de bd 73 bd 29 2b a6 ba
       -0.03018608 0.064836755 -0.059507243 -0.0012677658
000370 80 d5 8e be 63 00 1b 3e d8 9c ee bc 91 c5 9c 3f
       -0.27897263 0.15136866 -0.029127523 1.2247792
000380 63 49 80 3d a8 08 86 3c ad aa 17 bd a6 cd 67 3b
       0.062639974 0.01636155 -0.037028003 0.0035370379
000390 31 fd 77 bf f2 f1 f1 3c f5 e2 c1 3c 0c 5c 97 ba
       -0.96870714 0.029534314 0.023667792 -0.0011547818
0003a0 02 cc b8 bc 18 07 46 3d a2 d2 b2 3a dc 03 09 3f
       -0.022558216 0.04834661 0.0013643096 0.53521514
0003b0 93 5e 79 3d 72 bc d0 3d 25 fa 17 3d d8 d2 b2 bc
       0.06088121 0.10192193 0.03710379 -0.021829054
0003c0 23 49 44 bc 05 5e a8 3c 8b a5 ef 3b a1 21 b1 bb
       -0.011980328 0.020552645 0.0073134354 -0.00540562
0003d0 bd 2c 4c bd 8b 5b 0a 3c 47 1f 3c 3d 30 43 43 bd
       -0.049847353 0.008444677 0.045928266 -0.047671497
0003e0 6d 00 d8 bf b7 86 c0 3e ff 06 c6 bc 29 18 03 bd
       -1.687513 0.3760278 -0.024173258 -0.032005463
0003f0 2d 5f 81 be 8c 66 db 3d 84 10 0c bd 59 c9 d1 3a
       -0.25267926 0.10712919 -0.034195438 0.0016005441

actor.mu.bias f4 [2]
000000 82 44 09 bd f4 1c 75 bd
       -0.0335126 -0.059842065

actor.log_std.weight f4 [2, 256]
000000 49 3a e5 3b e5 96 85 3c 43 68 a3 3d b9 3d 4e 3d
       0.0069954735 0.016307304 0.07978871 0.050351832
000010 1e 67 1c 3f e6 06 80 3c 02 81 cc 3c 0c 47 28 bc
       0.61094844 0.01562829 0.02496386 -0.010270845
000020 51 8a 5b ba 34 e0 08 3d 3a f8 c8 bd 9e 1f bb 3c
       -0.0008374798 0.03341694 -0.098129705 0.022842225
000030 a1 a1 ff bc 9a 4d d3 be 05 0e 1d bd 32 94 91 3f
       -0.031205 -0.41270143 -0.03834345 1.1373351
000040 8e a1 af 3b eb 19 2a 3d c0 58 08 bd c0 c0 07 bf
       0.005359835 0.041528624 -0.033287764 -0.5302849
000050 ad 01 0a bf 5a de c2 3c 1d 04 1b bd 27 f1 df 3b
       -0.5390881 0.023787666 -0.03784572 0.0068341675
000060 d9 e7 9b bd 4b 7c 04 3b bc d3 6f 3d 02 a1 1f bd
       -0.07612581 0.0020215686 0.058551535 -0.03897191
000070 fa 6c 95 3e 88 6b 7b be 11 dd 37 bd ec b3 4c bf
       0.29184705 -0.24552739 -0.04488856 -0.7996204
000080 82 51 8d 3d e5 87 bc be cc 80 07 3d 76 69 f7 be
       0.06900312 -0.3682243 0.033081815 -0.48322648
000090 51 5b f1 ba a6 f0 3d 3c da b9 a2 be 83 be 61 3b
       -0.0018414055 0.01159302 -0.31782418 0.003444583
0000a0 24 9f 5b bd 34 1c 1f bd 81 fe 15 bc 6c 39 ad bc
       -0.053618565 -0.038845256 -0.009154917 -0.021145545
0000b0 75 1c fa bb 30 9b 7d 3e 6d 62 b5 ba 1b 80 e1 bc
       -0.007632787 0.2476623 -0.0013838537 -0.027526906
0000c0 fb ef 51 bc e9 c8 24 bc 01 1a 51 bd 1b 37 a7 3f
       -0.012813563 -0.010057666 -0.05105019 1.3063692
0000d0 ce d9 87 3d 55 27 70 39 44 29 0c bc 8d 91 b7 bc
       0.0663334 0.00022902836 -0.00855476 -0.022408271
0000e0 97 06 37 3c 8c 41 4d 3d d7 f4 75 3c ca 04 ad 3c
       0.011171005 0.05011134 0.015011988 0.021120448
0000f0 25 14 70 3c 76 50 15 bd b7 29 19 bd 89 f2 8e be
       0.01465324 -0.036453687 -0.037393298 -0.27919415
000100 76 c0 66 3d fa 47 20 bb ba d0 c6 bc b3 b9 8c ba
       0.05633589 -0.0024456964 -0.02426945 -0.0010736495
000110 c7 89 2a 3d b2 84 c6 bc da 82 0e 3d da 3f 50 bd
       0.0416353 -0.024233196 0.03479276 -0.050842144
000120 c4 de 0b 3d 43 4a 10 c0 1a 3a 34 bf 83 01 57 3e
       0.034147993 -2.2545326 -0.70401156 0.2099667
000130 51 17 5f 3b 85 38 97 3d 26 d5 45 ba 06 18 5a 3c
       0.0034040997 0.07383827 -0.0007546715 0.013311392
000140 69 b4 d8 be 98 8c 46 bc b3 97 90 bc 4a fe 37 3d
       -0.42325142 -0.012118481 -0.01765046 0.044920243
000150 99 69 9a 3d ab 30 53 3b 10 bb fc bc 80 fc 16 3d
       0.075396724 0.0032225053 -0.030850917 0.036861897
000160 00 08 69 bd d2 9c 21 3d 00 6b 50 3b 1e 13 28 bd
       -0.056892395 0.039456196 0.0031802058 -0.041033857
000170 2d 4c 92 3b 47 3f 18 3c 18 4c 5e bc 71 72 ed bd
       0.0044646473 0.00929243 -0.013567947 -0.115940936
000180 0f a1 e7 3b 57 06 40 bf 2d 54 3e 3d aa 8b 0e 3c
       0.00706876 -0.75009674 0.046466995 0.008700291
000190 4b 29 32 bc 4c 39 aa 3c 3c fb 04 bd 44 d6 a6 bf
       -0.010874103 0.020779274 -0.03246616 -1.3034139
0001a0 3f 71 6b 3c 20 76 16 bd cf 3a ea 3d a6 69 f4 3c
       0.014370262 -0.036733747 0.11436998 0.029835533
0001b0 9e 32 ad 3c 19 8c 98 be ca d6 1d bf db 48 ac 3b
       0.0211423 -0.29794386 -0.6165587 0.0052577085
0001c0 41 39 d6 3a b7 f0 2e 3f fe 77 f1 ba 2b e4 b6 3b
       0.0016343967 0.6833605 -0.0018422601 0.005581399
0001d0 c2 e4 2d bc fb ce b5 bc 2c bc 58 bc b6 37 25 3d
       -0.010613622 -0.022193423 -0.013228457 0.040336333
0001e0 99 71 31 bf d6 ae 05 bc 34 b8 ba bd 08 93 b0 be
       -0.6931396 -0.00815936 -0.09117165 -0.34487176
0001f0 9b 90 64 bc 9d 29 18 bf 02 8c 9b 3c ec 36 3e 3c
       -0.013950492 -0.59438497 0.01898766 0.011609774
000200 79 d5 68 bc 00 fc 61 3d b3 f5 04 3d 21 ee 65 bd
       -0.014211052 0.055171967 0.03246088 -0.0561353
000210 4c 38 9c 3b 76 e0 aa bc 6b 5e 98 be 6a dc 23 3f
       0.0047674533 -0.020858984 -0.29759535 0.640082
000220 d2 74 05 3d c2 98 3a bb d2 e1 14 3d 6c 73 d5 3d
       0.03258211 -0.0028472398 0.03634817 0.104224056
000230 41 3a c7 3c 1c 59 eb bb 8f 02 da bd b3 bc 07 bd
       0.02431977 -0.0071822535 -0.10645019 -0.033138942
000240 cd cd bd be b7 4a 72 3d 22 f5 0e 3d 5c d1 92 bc
       -0.37071076 0.059153285 0.034901746 -0.017922096
000250 29 fc a2 bd 01 0c b1 3c 91 83 20 3f 14 a7 39 bf
       -0.07958252 0.02161217 0.62700754 -0.72520566
000260 e3 0a c3 bc 61 4d 8a 3e c9 89 b2 bc 76 35 03 3f
       -0.023808902 0.2701216 -0.021794217 0.5125345
000270 48 7b 20 3e 9e de 7c bf ba c8 ed bc 74 b3 80 3d
       0.15672028 -0.98777187 -0.029026378 0.06284228
000280 75 e5 95 3f c2 d6 ab 3c 96 ed 7d bb 48 2e 84 bc
       1.171065 0.020976428 -0.0038746349 -0.01613535
000290 c9 19 5a 3d e8 43 74 3c 70 14 60 3c 29 f1 11 bc
       0.053247247 0.014908768 0.013676748 -0.008907595
0002a0 ff 5c 03 bd 54 f5 1d bf 5e 60 12 bd cd d3 27 3d
       -0.03207111 -0.61702466 -0.035736434 0.040973473
0002b0 3a b0 b8 3c ca 1e c2 3c d7 36 04 3d b7 73 26 3d
       0.022544969 0.023696322 0.03227886 0.040637698
0002c0 b3 27 c2 3f 65 98 1c bc 61 ec af be 1c b3 d7 3c
       1.5168365 -0.009557818 -0.3436003 0.026330523
0002d0 d4 4a 77 bc 86 e3 14 3c 43 40 56 bf 91 af a5 3c
       -0.015093524 0.009087449 -0.83691806 0.020225318
0002e0 7c f0 81 bd 8d a7 01 3d fc d9 a7 bc 08 4b 1f 3b
       -0.06344697 0.03165393 -0.020489685 0.0024306197
0002f0 55 14 30 3f b7 96 7f bf 24 c5 37 bd e5 de 5f bd
       0.68781024 -0.9983935 -0.044865742 -0.05465593
000300 8a 87 a6 3c db cd 5f 3c 3e cc 1f bc e2 74 89 bd
       0.020328302 0.01365992 -0.009753285 -0.06711747
000310 bd af 85 3b 4c 73 d8 3e 3e c3 24 3d d2 f4 87 3f
       0.0040797875 0.42275465 0.04022526 1.0621588
000320 bf 41 40 bc fc 3a ac 3e 2a 99 9f 3d e7 70 a2 bf
       -0.011734425 0.33638752 0.077928856 -1.2690705
000330 9b 95 b4 3c 73 3e 59 3c 4a df a3 bf c3 20 40 3f
       0.022043994 0.013259518 -1.2802517 0.7504999
000340 31 c2 9b 3f 29 f4 c1 bf 5b 25 bd bc 5c fc d5 3e
       1.2168638 -1.5152637 -0.023089102 0.41794097
000350 f5 76 8d 3d e3 19 81 3c 12 c3 16 3d 87 87 dc be
       0.06907455 0.015759414 0.036807127 -0.4307215
000360 22 34 05 bd 0c 26 01 3d e2 e8 c8 3c 71 68 63 bc
       -0.03252042 0.031530425 0.02452511 -0.013879881
000370 5e 2f 79 be c8 e3 47 bf b5 ea 6e 3c 8b 86 17 3f
       -0.24334475 -0.7808194 0.014582326 0.5918967
000380 89 0c d5 3c 42 92 74 bb 2c b6 ab bc 7b 58 1a 3b
       0.026006954 -0.0037318622 -0.02096089 0.0023551274
000390 4a f7 d4 3e ba a1 6d 3c f0 90 c6 3c ba da cb 3c
       0.41594917 0.014503891 0.024239033 0.02488457
0003a0 f4 df ee 3c 73 d7 2e bb 5b 6e d5 3d 6b a1 88 be
       0.029159524 -0.002667871 0.10421439 -0.26685652
0003b0 85 e4 a0 ba df 3a b5 be db 90 a9 bb d8 af 5a 3d
       -0.0012275135 -0.35396478 -0.005174739 0.053390354
0003c0 1e 7f a7 3d de 8e 09 bc 94 6d 04 bc 94 9d f0 bc
       0.081785426 -0.008395879 -0.008082766 -0.029372014
0003d0 1e 1c 54 bd 99 42 90 3c 06 7c 48 bb bb cc 18 3d
       -0.051784627 0.017609881 -0.0030591502 0.03730462
0003e0 84 de d0 3f cf bc 3c 3c 33 ed 34 bc 73 44 f1 3c
       1.6317906 0.011519625 -0.011042881 0.029451584
0003f0 e1 b1 de 3e ba f7 9b 3d 47 ff 7c 3d 62 f1 11 bd
       0.43495086 0.076156095 0.06176689 -0.03563059

actor.log_std.bias f4 [2]
000000 ae 63 05 bf de 15 e0 be
       -0.52105224 -0.43766683
